…
==================>use default seg head neck
odict_keys(['segmentation', 'fgvc', 'trafficsign'])
################################
[08/03 16:23:23 ufo]: Model:
MultiTaskBatchFuse(
  (backbone): ConvNeXt(
    (stem): Sequential(
      (0): Conv2D(3, 256, kernel_size=[4, 4], stride=[4, 4], data_format=NCHW)
      (1): LayerNorm2D(normalized_shape=[256], epsilon=1e-06)
    )
    (stages): Sequential(
      (0): ConvNeXtStage(
        (downsample): Identity()
        (blocks): Sequential(
          (0): ConvNeXtBlock(
            (conv_dw): Conv2D(256, 256, kernel_size=[7, 7], padding=3, groups=256, data_format=NCHW)
            (norm): LayerNorm(normalized_shape=[256], epsilon=1e-06)
            (mlp): Mlp(
              (fc1): Linear(in_features=256, out_features=1024, dtype=float32)
              (fc2): Linear(in_features=1024, out_features=256, dtype=float32)
              (act): GELU(approximate=False)
              (dropout): Dropout(p=0.0, axis=None, mode=upscale_in_train)
            )
            (drop_path): Identity()
          )
          (1): ConvNeXtBlock(
            (conv_dw): Conv2D(256, 256, kernel_size=[7, 7], padding=3, groups=256, data_format=NCHW)
            (norm): LayerNorm(normalized_shape=[256], epsilon=1e-06)
            (mlp): Mlp(
              (fc1): Linear(in_features=256, out_features=1024, dtype=float32)
              (fc2): Linear(in_features=1024, out_features=256, dtype=float32)
              (act): GELU(approximate=False)
              (dropout): Dropout(p=0.0, axis=None, mode=upscale_in_train)
            )
            (drop_path): DropPath()
          )
          (2): ConvNeXtBlock(
            (conv_dw): Conv2D(256, 256, kernel_size=[7, 7], padding=3, groups=256, data_format=NCHW)
            (norm): LayerNorm(normalized_shape=[256], epsilon=1e-06)
            (mlp): Mlp(
              (fc1): Linear(in_features=256, out_features=1024, dtype=float32)
              (fc2): Linear(in_features=1024, out_features=256, dtype=float32)
              (act): GELU(approximate=False)
              (dropout): Dropout(p=0.0, axis=None, mode=upscale_in_train)
            )
            (drop_path): DropPath()
          )
        )
      )
      (1): ConvNeXtStage(
        (downsample): Sequential(
          (0): LayerNorm2D(normalized_shape=[256], epsilon=1e-06)
          (1): Conv2D(256, 512, kernel_size=[2, 2], stride=[2, 2], data_format=NCHW)
        )
        (blocks): Sequential(
          (0): ConvNeXtBlock(
            (conv_dw): Conv2D(512, 512, kernel_size=[7, 7], padding=3, groups=512, data_format=NCHW)
            (norm): LayerNorm(normalized_shape=[512], epsilon=1e-06)
            (mlp): Mlp(
              (fc1): Linear(in_features=512, out_features=2048, dtype=float32)
              (fc2): Linear(in_features=2048, out_features=512, dtype=float32)
              (act): GELU(approximate=False)
              (dropout): Dropout(p=0.0, axis=None, mode=upscale_in_train)
            )
            (drop_path): DropPath()
          )
          (1): ConvNeXtBlock(
            (conv_dw): Conv2D(512, 512, kernel_size=[7, 7], padding=3, groups=512, data_format=NCHW)
            (norm): LayerNorm(normalized_shape=[512], epsilon=1e-06)
            (mlp): Mlp(
              (fc1): Linear(in_features=512, out_features=2048, dtype=float32)
              (fc2): Linear(in_features=2048, out_features=512, dtype=float32)
              (act): GELU(approximate=False)
              (dropout): Dropout(p=0.0, axis=None, mode=upscale_in_train)
            )
            (drop_path): DropPath()
          )
          (2): ConvNeXtBlock(
            (conv_dw): Conv2D(512, 512, kernel_size=[7, 7], padding=3, groups=512, data_format=NCHW)
            (norm): LayerNorm(normalized_shape=[512], epsilon=1e-06)
            (mlp): Mlp(
              (fc1): Linear(in_features=512, out_features=2048, dtype=float32)
              (fc2): Linear(in_features=2048, out_features=512, dtype=float32)
              (act): GELU(approximate=False)
              (dropout): Dropout(p=0.0, axis=None, mode=upscale_in_train)
            )
            (drop_path): DropPath()
          )
        )
      )
      (2): ConvNeXtStage(
        (downsample): Sequential(
          (0): LayerNorm2D(normalized_shape=[512], epsilon=1e-06)
          (1): Conv2D(512, 1024, kernel_size=[2, 2], stride=[2, 2], data_format=NCHW)
        )
        (blocks): Sequential(
          (0): ConvNeXtBlock(
            (conv_dw): Conv2D(1024, 1024, kernel_size=[7, 7], padding=3, groups=1024, data_format=NCHW)
            (norm): LayerNorm(normalized_shape=[1024], epsilon=1e-06)
            (mlp): Mlp(
              (fc1): Linear(in_features=1024, out_features=4096, dtype=float32)
              (fc2): Linear(in_features=4096, out_features=1024, dtype=float32)
              (act): GELU(approximate=False)
              (dropout): Dropout(p=0.0, axis=None, mode=upscale_in_train)
            )
            (drop_path): DropPath()
          )
          (1): ConvNeXtBlock(
            (conv_dw): Conv2D(1024, 1024, kernel_size=[7, 7], padding=3, groups=1024, data_format=NCHW)
            (norm): LayerNorm(normalized_shape=[1024], epsilon=1e-06)
            (mlp): Mlp(
              (fc1): Linear(in_features=1024, out_features=4096, dtype=float32)
              (fc2): Linear(in_features=4096, out_features=1024, dtype=float32)
              (act): GELU(approximate=False)
              (dropout): Dropout(p=0.0, axis=None, mode=upscale_in_train)
            )
            (drop_path): DropPath()
          )
          (2): ConvNeXtBlock(
            (conv_dw): Conv2D(1024, 1024, kernel_size=[7, 7], padding=3, groups=1024, data_format=NCHW)
            (norm): LayerNorm(normalized_shape=[1024], epsilon=1e-06)
            (mlp): Mlp(
              (fc1): Linear(in_features=1024, out_features=4096, dtype=float32)
              (fc2): Linear(in_features=4096, out_features=1024, dtype=float32)
              (act): GELU(approximate=False)
              (dropout): Dropout(p=0.0, axis=None, mode=upscale_in_train)
            )
            (drop_path): DropPath()
          )
          (3): ConvNeXtBlock(
            (conv_dw): Conv2D(1024, 1024, kernel_size=[7, 7], padding=3, groups=1024, data_format=NCHW)
            (norm): LayerNorm(normalized_shape=[1024], epsilon=1e-06)
            (mlp): Mlp(
              (fc1): Linear(in_features=1024, out_features=4096, dtype=float32)
              (fc2): Linear(in_features=4096, out_features=1024, dtype=float32)
              (act): GELU(approximate=False)
              (dropout): Dropout(p=0.0, axis=None, mode=upscale_in_train)
            )
            (drop_path): DropPath()
          )
          (4): ConvNeXtBlock(
            (conv_dw): Conv2D(1024, 1024, kernel_size=[7, 7], padding=3, groups=1024, data_format=NCHW)
            (norm): LayerNorm(normalized_shape=[1024], epsilon=1e-06)
            (mlp): Mlp(
              (fc1): Linear(in_features=1024, out_features=4096, dtype=float32)
              (fc2): Linear(in_features=4096, out_features=1024, dtype=float32)
              (act): GELU(approximate=False)
              (dropout): Dropout(p=0.0, axis=None, mode=upscale_in_train)
            )
            (drop_path): DropPath()
          )
          (5): ConvNeXtBlock(
            (conv_dw): Conv2D(1024, 1024, kernel_size=[7, 7], padding=3, groups=1024, data_format=NCHW)
            (norm): LayerNorm(normalized_shape=[1024], epsilon=1e-06)
            (mlp): Mlp(
              (fc1): Linear(in_features=1024, out_features=4096, dtype=float32)
              (fc2): Linear(in_features=4096, out_features=1024, dtype=float32)
              (act): GELU(approximate=False)
              (dropout): Dropout(p=0.0, axis=None, mode=upscale_in_train)
            )
            (drop_path): DropPath()
          )
          (6): ConvNeXtBlock(
            (conv_dw): Conv2D(1024, 1024, kernel_size=[7, 7], padding=3, groups=1024, data_format=NCHW)
            (norm): LayerNorm(normalized_shape=[1024], epsilon=1e-06)
            (mlp): Mlp(
              (fc1): Linear(in_features=1024, out_features=4096, dtype=float32)
              (fc2): Linear(in_features=4096, out_features=1024, dtype=float32)
              (act): GELU(approximate=False)
              (dropout): Dropout(p=0.0, axis=None, mode=upscale_in_train)
            )
            (drop_path): DropPath()
          )
          (7): ConvNeXtBlock(
            (conv_dw): Conv2D(1024, 1024, kernel_size=[7, 7], padding=3, groups=1024, data_format=NCHW)
            (norm): LayerNorm(normalized_shape=[1024], epsilon=1e-06)
            (mlp): Mlp(
              (fc1): Linear(in_features=1024, out_features=4096, dtype=float32)
              (fc2): Linear(in_features=4096, out_features=1024, dtype=float32)
              (act): GELU(approximate=False)
              (dropout): Dropout(p=0.0, axis=None, mode=upscale_in_train)
            )
            (drop_path): DropPath()
          )
          (8): ConvNeXtBlock(
            (conv_dw): Conv2D(1024, 1024, kernel_size=[7, 7], padding=3, groups=1024, data_format=NCHW)
            (norm): LayerNorm(normalized_shape=[1024], epsilon=1e-06)
            (mlp): Mlp(
              (fc1): Linear(in_features=1024, out_features=4096, dtype=float32)
              (fc2): Linear(in_features=4096, out_features=1024, dtype=float32)
              (act): GELU(approximate=False)
              (dropout): Dropout(p=0.0, axis=None, mode=upscale_in_train)
            )
            (drop_path): DropPath()
          )
          (9): ConvNeXtBlock(
            (conv_dw): Conv2D(1024, 1024, kernel_size=[7, 7], padding=3, groups=1024, data_format=NCHW)
            (norm): LayerNorm(normalized_shape=[1024], epsilon=1e-06)
            (mlp): Mlp(
              (fc1): Linear(in_features=1024, out_features=4096, dtype=float32)
              (fc2): Linear(in_features=4096, out_features=1024, dtype=float32)
              (act): GELU(approximate=False)
              (dropout): Dropout(p=0.0, axis=None, mode=upscale_in_train)
            )
            (drop_path): DropPath()
          )
          (10): ConvNeXtBlock(
            (conv_dw): Conv2D(1024, 1024, kernel_size=[7, 7], padding=3, groups=1024, data_format=NCHW)
            (norm): LayerNorm(normalized_shape=[1024], epsilon=1e-06)
            (mlp): Mlp(
              (fc1): Linear(in_features=1024, out_features=4096, dtype=float32)
              (fc2): Linear(in_features=4096, out_features=1024, dtype=float32)
              (act): GELU(approximate=False)
              (dropout): Dropout(p=0.0, axis=None, mode=upscale_in_train)
            )
            (drop_path): DropPath()
          )
          (11): ConvNeXtBlock(
            (conv_dw): Conv2D(1024, 1024, kernel_size=[7, 7], padding=3, groups=1024, data_format=NCHW)
            (norm): LayerNorm(normalized_shape=[1024], epsilon=1e-06)
            (mlp): Mlp(
              (fc1): Linear(in_features=1024, out_features=4096, dtype=float32)
              (fc2): Linear(in_features=4096, out_features=1024, dtype=float32)
              (act): GELU(approximate=False)
              (dropout): Dropout(p=0.0, axis=None, mode=upscale_in_train)
            )
            (drop_path): DropPath()
          )
          (12): ConvNeXtBlock(
            (conv_dw): Conv2D(1024, 1024, kernel_size=[7, 7], padding=3, groups=1024, data_format=NCHW)
            (norm): LayerNorm(normalized_shape=[1024], epsilon=1e-06)
            (mlp): Mlp(
              (fc1): Linear(in_features=1024, out_features=4096, dtype=float32)
              (fc2): Linear(in_features=4096, out_features=1024, dtype=float32)
              (act): GELU(approximate=False)
              (dropout): Dropout(p=0.0, axis=None, mode=upscale_in_train)
            )
            (drop_path): DropPath()
          )
          (13): ConvNeXtBlock(
            (conv_dw): Conv2D(1024, 1024, kernel_size=[7, 7], padding=3, groups=1024, data_format=NCHW)
            (norm): LayerNorm(normalized_shape=[1024], epsilon=1e-06)
            (mlp): Mlp(
              (fc1): Linear(in_features=1024, out_features=4096, dtype=float32)
              (fc2): Linear(in_features=4096, out_features=1024, dtype=float32)
              (act): GELU(approximate=False)
              (dropout): Dropout(p=0.0, axis=None, mode=upscale_in_train)
            )
            (drop_path): DropPath()
          )
          (14): ConvNeXtBlock(
            (conv_dw): Conv2D(1024, 1024, kernel_size=[7, 7], padding=3, groups=1024, data_format=NCHW)
            (norm): LayerNorm(normalized_shape=[1024], epsilon=1e-06)
            (mlp): Mlp(
              (fc1): Linear(in_features=1024, out_features=4096, dtype=float32)
              (fc2): Linear(in_features=4096, out_features=1024, dtype=float32)
              (act): GELU(approximate=False)
              (dropout): Dropout(p=0.0, axis=None, mode=upscale_in_train)
            )
            (drop_path): DropPath()
          )
          (15): ConvNeXtBlock(
            (conv_dw): Conv2D(1024, 1024, kernel_size=[7, 7], padding=3, groups=1024, data_format=NCHW)
            (norm): LayerNorm(normalized_shape=[1024], epsilon=1e-06)
            (mlp): Mlp(
              (fc1): Linear(in_features=1024, out_features=4096, dtype=float32)
              (fc2): Linear(in_features=4096, out_features=1024, dtype=float32)
              (act): GELU(approximate=False)
              (dropout): Dropout(p=0.0, axis=None, mode=upscale_in_train)
            )
            (drop_path): DropPath()
          )
          (16): ConvNeXtBlock(
            (conv_dw): Conv2D(1024, 1024, kernel_size=[7, 7], padding=3, groups=1024, data_format=NCHW)
            (norm): LayerNorm(normalized_shape=[1024], epsilon=1e-06)
            (mlp): Mlp(
              (fc1): Linear(in_features=1024, out_features=4096, dtype=float32)
              (fc2): Linear(in_features=4096, out_features=1024, dtype=float32)
              (act): GELU(approximate=False)
              (dropout): Dropout(p=0.0, axis=None, mode=upscale_in_train)
            )
            (drop_path): DropPath()
          )
          (17): ConvNeXtBlock(
            (conv_dw): Conv2D(1024, 1024, kernel_size=[7, 7], padding=3, groups=1024, data_format=NCHW)
            (norm): LayerNorm(normalized_shape=[1024], epsilon=1e-06)
            (mlp): Mlp(
              (fc1): Linear(in_features=1024, out_features=4096, dtype=float32)
              (fc2): Linear(in_features=4096, out_features=1024, dtype=float32)
              (act): GELU(approximate=False)
              (dropout): Dropout(p=0.0, axis=None, mode=upscale_in_train)
            )
            (drop_path): DropPath()
          )
          (18): ConvNeXtBlock(
            (conv_dw): Conv2D(1024, 1024, kernel_size=[7, 7], padding=3, groups=1024, data_format=NCHW)
            (norm): LayerNorm(normalized_shape=[1024], epsilon=1e-06)
            (mlp): Mlp(
              (fc1): Linear(in_features=1024, out_features=4096, dtype=float32)
              (fc2): Linear(in_features=4096, out_features=1024, dtype=float32)
              (act): GELU(approximate=False)
              (dropout): Dropout(p=0.0, axis=None, mode=upscale_in_train)
            )
            (drop_path): DropPath()
          )
          (19): ConvNeXtBlock(
            (conv_dw): Conv2D(1024, 1024, kernel_size=[7, 7], padding=3, groups=1024, data_format=NCHW)
            (norm): LayerNorm(normalized_shape=[1024], epsilon=1e-06)
            (mlp): Mlp(
              (fc1): Linear(in_features=1024, out_features=4096, dtype=float32)
              (fc2): Linear(in_features=4096, out_features=1024, dtype=float32)
              (act): GELU(approximate=False)
              (dropout): Dropout(p=0.0, axis=None, mode=upscale_in_train)
            )
            (drop_path): DropPath()
          )
          (20): ConvNeXtBlock(
            (conv_dw): Conv2D(1024, 1024, kernel_size=[7, 7], padding=3, groups=1024, data_format=NCHW)
            (norm): LayerNorm(normalized_shape=[1024], epsilon=1e-06)
            (mlp): Mlp(
              (fc1): Linear(in_features=1024, out_features=4096, dtype=float32)
              (fc2): Linear(in_features=4096, out_features=1024, dtype=float32)
              (act): GELU(approximate=False)
              (dropout): Dropout(p=0.0, axis=None, mode=upscale_in_train)
            )
            (drop_path): DropPath()
          )
          (21): ConvNeXtBlock(
            (conv_dw): Conv2D(1024, 1024, kernel_size=[7, 7], padding=3, groups=1024, data_format=NCHW)
            (norm): LayerNorm(normalized_shape=[1024], epsilon=1e-06)
            (mlp): Mlp(
              (fc1): Linear(in_features=1024, out_features=4096, dtype=float32)
              (fc2): Linear(in_features=4096, out_features=1024, dtype=float32)
              (act): GELU(approximate=False)
              (dropout): Dropout(p=0.0, axis=None, mode=upscale_in_train)
            )
            (drop_path): DropPath()
          )
          (22): ConvNeXtBlock(
            (conv_dw): Conv2D(1024, 1024, kernel_size=[7, 7], padding=3, groups=1024, data_format=NCHW)
            (norm): LayerNorm(normalized_shape=[1024], epsilon=1e-06)
            (mlp): Mlp(
              (fc1): Linear(in_features=1024, out_features=4096, dtype=float32)
              (fc2): Linear(in_features=4096, out_features=1024, dtype=float32)
              (act): GELU(approximate=False)
              (dropout): Dropout(p=0.0, axis=None, mode=upscale_in_train)
            )
            (drop_path): DropPath()
          )
          (23): ConvNeXtBlock(
            (conv_dw): Conv2D(1024, 1024, kernel_size=[7, 7], padding=3, groups=1024, data_format=NCHW)
            (norm): LayerNorm(normalized_shape=[1024], epsilon=1e-06)
            (mlp): Mlp(
              (fc1): Linear(in_features=1024, out_features=4096, dtype=float32)
              (fc2): Linear(in_features=4096, out_features=1024, dtype=float32)
              (act): GELU(approximate=False)
              (dropout): Dropout(p=0.0, axis=None, mode=upscale_in_train)
            )
            (drop_path): DropPath()
          )
          (24): ConvNeXtBlock(
            (conv_dw): Conv2D(1024, 1024, kernel_size=[7, 7], padding=3, groups=1024, data_format=NCHW)
            (norm): LayerNorm(normalized_shape=[1024], epsilon=1e-06)
            (mlp): Mlp(
              (fc1): Linear(in_features=1024, out_features=4096, dtype=float32)
              (fc2): Linear(in_features=4096, out_features=1024, dtype=float32)
              (act): GELU(approximate=False)
              (dropout): Dropout(p=0.0, axis=None, mode=upscale_in_train)
            )
            (drop_path): DropPath()
          )
          (25): ConvNeXtBlock(
            (conv_dw): Conv2D(1024, 1024, kernel_size=[7, 7], padding=3, groups=1024, data_format=NCHW)
            (norm): LayerNorm(normalized_shape=[1024], epsilon=1e-06)
            (mlp): Mlp(
              (fc1): Linear(in_features=1024, out_features=4096, dtype=float32)
              (fc2): Linear(in_features=4096, out_features=1024, dtype=float32)
              (act): GELU(approximate=False)
              (dropout): Dropout(p=0.0, axis=None, mode=upscale_in_train)
            )
            (drop_path): DropPath()
          )
          (26): ConvNeXtBlock(
            (conv_dw): Conv2D(1024, 1024, kernel_size=[7, 7], padding=3, groups=1024, data_format=NCHW)
            (norm): LayerNorm(normalized_shape=[1024], epsilon=1e-06)
            (mlp): Mlp(
              (fc1): Linear(in_features=1024, out_features=4096, dtype=float32)
              (fc2): Linear(in_features=4096, out_features=1024, dtype=float32)
              (act): GELU(approximate=False)
              (dropout): Dropout(p=0.0, axis=None, mode=upscale_in_train)
            )
            (drop_path): DropPath()
          )
        )
      )
      (3): ConvNeXtStage(
        (downsample): Sequential(
          (0): LayerNorm2D(normalized_shape=[1024], epsilon=1e-06)
          (1): Conv2D(1024, 2048, kernel_size=[2, 2], stride=[2, 2], data_format=NCHW)
        )
        (blocks): Sequential(
          (0): ConvNeXtBlock(
            (conv_dw): Conv2D(2048, 2048, kernel_size=[7, 7], padding=3, groups=2048, data_format=NCHW)
            (norm): LayerNorm(normalized_shape=[2048], epsilon=1e-06)
            (mlp): Mlp(
              (fc1): Linear(in_features=2048, out_features=8192, dtype=float32)
              (fc2): Linear(in_features=8192, out_features=2048, dtype=float32)
              (act): GELU(approximate=False)
              (dropout): Dropout(p=0.0, axis=None, mode=upscale_in_train)
            )
            (drop_path): DropPath()
          )
          (1): ConvNeXtBlock(
            (conv_dw): Conv2D(2048, 2048, kernel_size=[7, 7], padding=3, groups=2048, data_format=NCHW)
            (norm): LayerNorm(normalized_shape=[2048], epsilon=1e-06)
            (mlp): Mlp(
              (fc1): Linear(in_features=2048, out_features=8192, dtype=float32)
              (fc2): Linear(in_features=8192, out_features=2048, dtype=float32)
              (act): GELU(approximate=False)
              (dropout): Dropout(p=0.0, axis=None, mode=upscale_in_train)
            )
            (drop_path): DropPath()
          )
          (2): ConvNeXtBlock(
            (conv_dw): Conv2D(2048, 2048, kernel_size=[7, 7], padding=3, groups=2048, data_format=NCHW)
            (norm): LayerNorm(normalized_shape=[2048], epsilon=1e-06)
            (mlp): Mlp(
              (fc1): Linear(in_features=2048, out_features=8192, dtype=float32)
              (fc2): Linear(in_features=8192, out_features=2048, dtype=float32)
              (act): GELU(approximate=False)
              (dropout): Dropout(p=0.0, axis=None, mode=upscale_in_train)
            )
            (drop_path): DropPath()
          )
        )
      )
    )
    (norm_pre): Identity()
    (head): Sequential(
      (global_pool): AdaptiveAvgPool2D(output_size=1)
      (norm): LayerNorm2D(normalized_shape=[2048], epsilon=1e-06)
      (flatten): Flatten()
      (drop): Dropout(p=0.0, axis=None, mode=upscale_in_train)
      (fc): Linear(in_features=2048, out_features=1000, dtype=float32)
    )
  )
  (heads): LayerDict(
    (segmentation): Mask2Former(
      (pixel_decoder): MSDeformAttnPixelDecoder(
        (input_proj): LayerList(
          (0): Sequential(
            (0): Conv2D(2048, 256, kernel_size=[1, 1], data_format=NCHW)
            (1): GroupNorm(num_groups=32, num_channels=256, epsilon=1e-05)
          )
          (1): Sequential(
…
            (0): Conv2D(512, 256, kernel_size=[1, 1], data_format=NCHW)
            (1): GroupNorm(num_groups=32, num_channels=256, epsilon=1e-05)
          )
          (3): Sequential(
            (0): Conv2D(256, 256, kernel_size=[1, 1], data_format=NCHW)
            (1): GroupNorm(num_groups=32, num_channels=256, epsilon=1e-05)
          )
        )
        (transformer): MSDeformAttnTransformerEncoderOnly(
          (encoder): MSDeformAttnTransformerEncoder(
            (layers): LayerList(
              (0): MSDeformAttnTransformerEncoderLayer(
                (self_attn): MSDeformAttn(
                  (sampling_offsets): Linear(in_features=256, out_features=256, dtype=float32)
                  (attention_weights): Linear(in_features=256, out_features=128, dtype=float32)
                  (value_proj): Linear(in_features=256, out_features=256, dtype=float32)
                  (output_proj): Linear(in_features=256, out_features=256, dtype=float32)
                )
                (dropout1): Dropout(p=0.0, axis=None, mode=upscale_in_train)
                (norm1): LayerNorm(normalized_shape=[256], epsilon=1e-05)
                (linear1): Linear(in_features=256, out_features=1024, dtype=float32)
                (activation): ReLU()
                (dropout2): Dropout(p=0.0, axis=None, mode=upscale_in_train)
                (linear2): Linear(in_features=1024, out_features=256, dtype=float32)
                (dropout3): Dropout(p=0.0, axis=None, mode=upscale_in_train)
                (norm2): LayerNorm(normalized_shape=[256], epsilon=1e-05)
              )
              (1): MSDeformAttnTransformerEncoderLayer(
                (self_attn): MSDeformAttn(
                  (sampling_offsets): Linear(in_features=256, out_features=256, dtype=float32)
                  (attention_weights): Linear(in_features=256, out_features=128, dtype=float32)
                  (value_proj): Linear(in_features=256, out_features=256, dtype=float32)
                  (output_proj): Linear(in_features=256, out_features=256, dtype=float32)
                )
                (dropout1): Dropout(p=0.0, axis=None, mode=upscale_in_train)
                (norm1): LayerNorm(normalized_shape=[256], epsilon=1e-05)
                (linear1): Linear(in_features=256, out_features=1024, dtype=float32)
                (activation): ReLU()
                (dropout2): Dropout(p=0.0, axis=None, mode=upscale_in_train)
                (linear2): Linear(in_features=1024, out_features=256, dtype=float32)
                (dropout3): Dropout(p=0.0, axis=None, mode=upscale_in_train)
                (norm2): LayerNorm(normalized_shape=[256], epsilon=1e-05)
              )
              (2): MSDeformAttnTransformerEncoderLayer(
                (self_attn): MSDeformAttn(
                  (sampling_offsets): Linear(in_features=256, out_features=256, dtype=float32)
                  (attention_weights): Linear(in_features=256, out_features=128, dtype=float32)
                  (value_proj): Linear(in_features=256, out_features=256, dtype=float32)
                  (output_proj): Linear(in_features=256, out_features=256, dtype=float32)
                )
                (dropout1): Dropout(p=0.0, axis=None, mode=upscale_in_train)
                (norm1): LayerNorm(normalized_shape=[256], epsilon=1e-05)
                (linear1): Linear(in_features=256, out_features=1024, dtype=float32)
                (activation): ReLU()
                (dropout2): Dropout(p=0.0, axis=None, mode=upscale_in_train)
                (linear2): Linear(in_features=1024, out_features=256, dtype=float32)
                (dropout3): Dropout(p=0.0, axis=None, mode=upscale_in_train)
                (norm2): LayerNorm(normalized_shape=[256], epsilon=1e-05)
              )
              (3): MSDeformAttnTransformerEncoderLayer(
                (self_attn): MSDeformAttn(
                  (sampling_offsets): Linear(in_features=256, out_features=256, dtype=float32)
                  (attention_weights): Linear(in_features=256, out_features=128, dtype=float32)
                  (value_proj): Linear(in_features=256, out_features=256, dtype=float32)
                  (output_proj): Linear(in_features=256, out_features=256, dtype=float32)
                )
                (dropout1): Dropout(p=0.0, axis=None, mode=upscale_in_train)
                (norm1): LayerNorm(normalized_shape=[256], epsilon=1e-05)
                (linear1): Linear(in_features=256, out_features=1024, dtype=float32)
                (activation): ReLU()
                (dropout2): Dropout(p=0.0, axis=None, mode=upscale_in_train)
                (linear2): Linear(in_features=1024, out_features=256, dtype=float32)
                (dropout3): Dropout(p=0.0, axis=None, mode=upscale_in_train)
                (norm2): LayerNorm(normalized_shape=[256], epsilon=1e-05)
              )
              (4): MSDeformAttnTransformerEncoderLayer(
                (self_attn): MSDeformAttn(
                  (sampling_offsets): Linear(in_features=256, out_features=256, dtype=float32)
                  (attention_weights): Linear(in_features=256, out_features=128, dtype=float32)
                  (value_proj): Linear(in_features=256, out_features=256, dtype=float32)
                  (output_proj): Linear(in_features=256, out_features=256, dtype=float32)
                )
                (dropout1): Dropout(p=0.0, axis=None, mode=upscale_in_train)
                (norm1): LayerNorm(normalized_shape=[256], epsilon=1e-05)
                (linear1): Linear(in_features=256, out_features=1024, dtype=float32)
                (activation): ReLU()
                (dropout2): Dropout(p=0.0, axis=None, mode=upscale_in_train)
                (linear2): Linear(in_features=1024, out_features=256, dtype=float32)
                (dropout3): Dropout(p=0.0, axis=None, mode=upscale_in_train)
                (norm2): LayerNorm(normalized_shape=[256], epsilon=1e-05)
              )
              (5): MSDeformAttnTransformerEncoderLayer(
                (self_attn): MSDeformAttn(
                  (sampling_offsets): Linear(in_features=256, out_features=256, dtype=float32)
                  (attention_weights): Linear(in_features=256, out_features=128, dtype=float32)
                  (value_proj): Linear(in_features=256, out_features=256, dtype=float32)
                  (output_proj): Linear(in_features=256, out_features=256, dtype=float32)
                )
                (dropout1): Dropout(p=0.0, axis=None, mode=upscale_in_train)
                (norm1): LayerNorm(normalized_shape=[256], epsilon=1e-05)
                (linear1): Linear(in_features=256, out_features=1024, dtype=float32)
                (activation): ReLU()
                (dropout2): Dropout(p=0.0, axis=None, mode=upscale_in_train)
                (linear2): Linear(in_features=1024, out_features=256, dtype=float32)
                (dropout3): Dropout(p=0.0, axis=None, mode=upscale_in_train)
                (norm2): LayerNorm(normalized_shape=[256], epsilon=1e-05)
              )
            )
          )
        )
        (pe_layer): PositionEmbeddingSine()
        (mask_conv): Conv2D(256, 256, kernel_size=[1, 1], data_format=NCHW)
      )
      (transformer_decoder): MultiScaleMaskedTransformerDecoder(
        (pe_layer): PositionEmbeddingSine()
        (transformer_self_attention_layers): LayerList(
          (0): SelfAttentionLayer(
            (self_attn): MultiHeadAttention(
              (q_proj): Linear(in_features=256, out_features=256, dtype=float32)
              (k_proj): Linear(in_features=256, out_features=256, dtype=float32)
              (v_proj): Linear(in_features=256, out_features=256, dtype=float32)
              (out_proj): Linear(in_features=256, out_features=256, dtype=float32)
            )
            (norm): LayerNorm(normalized_shape=[256], epsilon=1e-05)
            (dropout): Dropout(p=0.0, axis=None, mode=upscale_in_train)
            (activation): ReLU()
          )
          (1): SelfAttentionLayer(
            (self_attn): MultiHeadAttention(
              (q_proj): Linear(in_features=256, out_features=256, dtype=float32)
              (k_proj): Linear(in_features=256, out_features=256, dtype=float32)
              (v_proj): Linear(in_features=256, out_features=256, dtype=float32)
              (out_proj): Linear(in_features=256, out_features=256, dtype=float32)
            )
            (norm): LayerNorm(normalized_shape=[256], epsilon=1e-05)
            (dropout): Dropout(p=0.0, axis=None, mode=upscale_in_train)
            (activation): ReLU()
          )
          (2): SelfAttentionLayer(
            (self_attn): MultiHeadAttention(
              (q_proj): Linear(in_features=256, out_features=256, dtype=float32)
              (k_proj): Linear(in_features=256, out_features=256, dtype=float32)
              (v_proj): Linear(in_features=256, out_features=256, dtype=float32)
              (out_proj): Linear(in_features=256, out_features=256, dtype=float32)
            )
            (norm): LayerNorm(normalized_shape=[256], epsilon=1e-05)
            (dropout): Dropout(p=0.0, axis=None, mode=upscale_in_train)
            (activation): ReLU()
          )
          (3): SelfAttentionLayer(
            (self_attn): MultiHeadAttention(
              (q_proj): Linear(in_features=256, out_features=256, dtype=float32)
              (k_proj): Linear(in_features=256, out_features=256, dtype=float32)
              (v_proj): Linear(in_features=256, out_features=256, dtype=float32)
              (out_proj): Linear(in_features=256, out_features=256, dtype=float32)
            )
            (norm): LayerNorm(normalized_shape=[256], epsilon=1e-05)
            (dropout): Dropout(p=0.0, axis=None, mode=upscale_in_train)
            (activation): ReLU()
          )
          (4): SelfAttentionLayer(
            (self_attn): MultiHeadAttention(
              (q_proj): Linear(in_features=256, out_features=256, dtype=float32)
              (k_proj): Linear(in_features=256, out_features=256, dtype=float32)
              (v_proj): Linear(in_features=256, out_features=256, dtype=float32)
              (out_proj): Linear(in_features=256, out_features=256, dtype=float32)
            )
            (norm): LayerNorm(normalized_shape=[256], epsilon=1e-05)
            (dropout): Dropout(p=0.0, axis=None, mode=upscale_in_train)
            (activation): ReLU()
          )
          (5): SelfAttentionLayer(
            (self_attn): MultiHeadAttention(
              (q_proj): Linear(in_features=256, out_features=256, dtype=float32)
              (k_proj): Linear(in_features=256, out_features=256, dtype=float32)
              (v_proj): Linear(in_features=256, out_features=256, dtype=float32)
              (out_proj): Linear(in_features=256, out_features=256, dtype=float32)
            )
            (norm): LayerNorm(normalized_shape=[256], epsilon=1e-05)
            (dropout): Dropout(p=0.0, axis=None, mode=upscale_in_train)
            (activation): ReLU()
          )
          (6): SelfAttentionLayer(
            (self_attn): MultiHeadAttention(
              (q_proj): Linear(in_features=256, out_features=256, dtype=float32)
              (k_proj): Linear(in_features=256, out_features=256, dtype=float32)
              (v_proj): Linear(in_features=256, out_features=256, dtype=float32)
              (out_proj): Linear(in_features=256, out_features=256, dtype=float32)
            )
            (norm): LayerNorm(normalized_shape=[256], epsilon=1e-05)
            (dropout): Dropout(p=0.0, axis=None, mode=upscale_in_train)
            (activation): ReLU()
          )
          (7): SelfAttentionLayer(
            (self_attn): MultiHeadAttention(
              (q_proj): Linear(in_features=256, out_features=256, dtype=float32)
              (k_proj): Linear(in_features=256, out_features=256, dtype=float32)
              (v_proj): Linear(in_features=256, out_features=256, dtype=float32)
              (out_proj): Linear(in_features=256, out_features=256, dtype=float32)
            )
            (norm): LayerNorm(normalized_shape=[256], epsilon=1e-05)
            (dropout): Dropout(p=0.0, axis=None, mode=upscale_in_train)
            (activation): ReLU()
          )
          (8): SelfAttentionLayer(
            (self_attn): MultiHeadAttention(
              (q_proj): Linear(in_features=256, out_features=256, dtype=float32)
              (k_proj): Linear(in_features=256, out_features=256, dtype=float32)
              (v_proj): Linear(in_features=256, out_features=256, dtype=float32)
              (out_proj): Linear(in_features=256, out_features=256, dtype=float32)
            )
            (norm): LayerNorm(normalized_shape=[256], epsilon=1e-05)
            (dropout): Dropout(p=0.0, axis=None, mode=upscale_in_train)
            (activation): ReLU()
          )
        )
        (transformer_cross_attention_layers): LayerList(
          (0): CrossAttentionLayer(
            (multihead_attn): MultiHeadAttention(
              (q_proj): Linear(in_features=256, out_features=256, dtype=float32)
              (k_proj): Linear(in_features=256, out_features=256, dtype=float32)
              (v_proj): Linear(in_features=256, out_features=256, dtype=float32)
              (out_proj): Linear(in_features=256, out_features=256, dtype=float32)
            )
            (norm): LayerNorm(normalized_shape=[256], epsilon=1e-05)
            (dropout): Dropout(p=0.0, axis=None, mode=upscale_in_train)
            (activation): ReLU()
          )
          (1): CrossAttentionLayer(
            (multihead_attn): MultiHeadAttention(
              (q_proj): Linear(in_features=256, out_features=256, dtype=float32)
              (k_proj): Linear(in_features=256, out_features=256, dtype=float32)
              (v_proj): Linear(in_features=256, out_features=256, dtype=float32)
              (out_proj): Linear(in_features=256, out_features=256, dtype=float32)
            )
            (norm): LayerNorm(normalized_shape=[256], epsilon=1e-05)
            (dropout): Dropout(p=0.0, axis=None, mode=upscale_in_train)
            (activation): ReLU()
          )
          (2): CrossAttentionLayer(
            (multihead_attn): MultiHeadAttention(
              (q_proj): Linear(in_features=256, out_features=256, dtype=float32)
              (k_proj): Linear(in_features=256, out_features=256, dtype=float32)
              (v_proj): Linear(in_features=256, out_features=256, dtype=float32)
              (out_proj): Linear(in_features=256, out_features=256, dtype=float32)
            )
            (norm): LayerNorm(normalized_shape=[256], epsilon=1e-05)
            (dropout): Dropout(p=0.0, axis=None, mode=upscale_in_train)
            (activation): ReLU()
          )
          (3): CrossAttentionLayer(
            (multihead_attn): MultiHeadAttention(
              (q_proj): Linear(in_features=256, out_features=256, dtype=float32)
              (k_proj): Linear(in_features=256, out_features=256, dtype=float32)
              (v_proj): Linear(in_features=256, out_features=256, dtype=float32)
              (out_proj): Linear(in_features=256, out_features=256, dtype=float32)
            )
            (norm): LayerNorm(normalized_shape=[256], epsilon=1e-05)
            (dropout): Dropout(p=0.0, axis=None, mode=upscale_in_train)
            (activation): ReLU()
          )
          (4): CrossAttentionLayer(
            (multihead_attn): MultiHeadAttention(
              (q_proj): Linear(in_features=256, out_features=256, dtype=float32)
              (k_proj): Linear(in_features=256, out_features=256, dtype=float32)
              (v_proj): Linear(in_features=256, out_features=256, dtype=float32)
              (out_proj): Linear(in_features=256, out_features=256, dtype=float32)
            )
            (norm): LayerNorm(normalized_shape=[256], epsilon=1e-05)
            (dropout): Dropout(p=0.0, axis=None, mode=upscale_in_train)
            (activation): ReLU()
          )
          (5): CrossAttentionLayer(
            (multihead_attn): MultiHeadAttention(
              (q_proj): Linear(in_features=256, out_features=256, dtype=float32)
              (k_proj): Linear(in_features=256, out_features=256, dtype=float32)
              (v_proj): Linear(in_features=256, out_features=256, dtype=float32)
              (out_proj): Linear(in_features=256, out_features=256, dtype=float32)
            )
            (norm): LayerNorm(normalized_shape=[256], epsilon=1e-05)
            (dropout): Dropout(p=0.0, axis=None, mode=upscale_in_train)
            (activation): ReLU()
          )
          (6): CrossAttentionLayer(
            (multihead_attn): MultiHeadAttention(
              (q_proj): Linear(in_features=256, out_features=256, dtype=float32)
              (k_proj): Linear(in_features=256, out_features=256, dtype=float32)
              (v_proj): Linear(in_features=256, out_features=256, dtype=float32)
              (out_proj): Linear(in_features=256, out_features=256, dtype=float32)
            )
            (norm): LayerNorm(normalized_shape=[256], epsilon=1e-05)
            (dropout): Dropout(p=0.0, axis=None, mode=upscale_in_train)
            (activation): ReLU()
          )
          (7): CrossAttentionLayer(
            (multihead_attn): MultiHeadAttention(
              (q_proj): Linear(in_features=256, out_features=256, dtype=float32)
              (k_proj): Linear(in_features=256, out_features=256, dtype=float32)
              (v_proj): Linear(in_features=256, out_features=256, dtype=float32)
              (out_proj): Linear(in_features=256, out_features=256, dtype=float32)
            )
            (norm): LayerNorm(normalized_shape=[256], epsilon=1e-05)
            (dropout): Dropout(p=0.0, axis=None, mode=upscale_in_train)
            (activation): ReLU()
          )
          (8): CrossAttentionLayer(
            (multihead_attn): MultiHeadAttention(
              (q_proj): Linear(in_features=256, out_features=256, dtype=float32)
              (k_proj): Linear(in_features=256, out_features=256, dtype=float32)
              (v_proj): Linear(in_features=256, out_features=256, dtype=float32)
              (out_proj): Linear(in_features=256, out_features=256, dtype=float32)
            )
            (norm): LayerNorm(normalized_shape=[256], epsilon=1e-05)
            (dropout): Dropout(p=0.0, axis=None, mode=upscale_in_train)
            (activation): ReLU()
          )
        )
        (transformer_ffn_layers): LayerList(
          (0): FFNLayer(
            (linear1): Linear(in_features=256, out_features=2048, dtype=float32)
            (dropout): Dropout(p=0.0, axis=None, mode=upscale_in_train)
            (linear2): Linear(in_features=2048, out_features=256, dtype=float32)
            (norm): LayerNorm(normalized_shape=[256], epsilon=1e-05)
            (activation): ReLU()
          )
          (1): FFNLayer(
            (linear1): Linear(in_features=256, out_features=2048, dtype=float32)
            (dropout): Dropout(p=0.0, axis=None, mode=upscale_in_train)
            (linear2): Linear(in_features=2048, out_features=256, dtype=float32)
            (norm): LayerNorm(normalized_shape=[256], epsilon=1e-05)
            (activation): ReLU()
          )
          (2): FFNLayer(
            (linear1): Linear(in_features=256, out_features=2048, dtype=float32)
            (dropout): Dropout(p=0.0, axis=None, mode=upscale_in_train)
            (linear2): Linear(in_features=2048, out_features=256, dtype=float32)
            (norm): LayerNorm(normalized_shape=[256], epsilon=1e-05)
            (activation): ReLU()
          )
          (3): FFNLayer(
            (linear1): Linear(in_features=256, out_features=2048, dtype=float32)
            (dropout): Dropout(p=0.0, axis=None, mode=upscale_in_train)
            (linear2): Linear(in_features=2048, out_features=256, dtype=float32)
            (norm): LayerNorm(normalized_shape=[256], epsilon=1e-05)
            (activation): ReLU()
          )
          (4): FFNLayer(
            (linear1): Linear(in_features=256, out_features=2048, dtype=float32)
            (dropout): Dropout(p=0.0, axis=None, mode=upscale_in_train)
            (linear2): Linear(in_features=2048, out_features=256, dtype=float32)
            (norm): LayerNorm(normalized_shape=[256], epsilon=1e-05)
            (activation): ReLU()
          )
          (5): FFNLayer(
            (linear1): Linear(in_features=256, out_features=2048, dtype=float32)
            (dropout): Dropout(p=0.0, axis=None, mode=upscale_in_train)
            (linear2): Linear(in_features=2048, out_features=256, dtype=float32)
            (norm): LayerNorm(normalized_shape=[256], epsilon=1e-05)
            (activation): ReLU()
          )
          (6): FFNLayer(
            (linear1): Linear(in_features=256, out_features=2048, dtype=float32)
            (dropout): Dropout(p=0.0, axis=None, mode=upscale_in_train)
            (linear2): Linear(in_features=2048, out_features=256, dtype=float32)
            (norm): LayerNorm(normalized_shape=[256], epsilon=1e-05)
            (activation): ReLU()
          )
          (7): FFNLayer(
            (linear1): Linear(in_features=256, out_features=2048, dtype=float32)
            (dropout): Dropout(p=0.0, axis=None, mode=upscale_in_train)
            (linear2): Linear(in_features=2048, out_features=256, dtype=float32)
            (norm): LayerNorm(normalized_shape=[256], epsilon=1e-05)
            (activation): ReLU()
          )
          (8): FFNLayer(
            (linear1): Linear(in_features=256, out_features=2048, dtype=float32)
            (dropout): Dropout(p=0.0, axis=None, mode=upscale_in_train)
            (linear2): Linear(in_features=2048, out_features=256, dtype=float32)
            (norm): LayerNorm(normalized_shape=[256], epsilon=1e-05)
            (activation): ReLU()
          )
        )
        (decoder_norm): LayerNorm(normalized_shape=[256], epsilon=1e-05)
        (query_feat): Embedding(100, 256, sparse=False)
        (query_embed): Embedding(100, 256, sparse=False)
        (level_embed): Embedding(4, 256, sparse=False)
        (input_proj): LayerList(
          (0): Sequential()
          (1): Sequential()
          (2): Sequential()
          (3): Sequential()
        )
        (class_embed): Linear(in_features=256, out_features=20, dtype=float32)
        (mask_embed): MLP(
          (layers): LayerList(
            (0): Linear(in_features=256, out_features=256, dtype=float32)
            (1): Linear(in_features=256, out_features=256, dtype=float32)
            (2): Linear(in_features=256, out_features=256, dtype=float32)
          )
        )
      )
      (loss): Mask2FormerLoss(
        (loss1): mask2Formerloss(
          (matcher): HungarianMatcher()
        )
      )
    )
    (fgvc): ClsHead(
      (avg_pool): AdaptiveAvgPool2D(output_size=1)
      (fc1): Linear(in_features=2048, out_features=1024, dtype=float32)
      (fc2): Linear(in_features=1024, out_features=196, dtype=float32)
      (flatten): Flatten()
    )
    (trafficsign): DETR(
      (transformer): DINOTransformer(
        (input_proj): LayerList(
          (0): Sequential(
            (conv): Conv2D(256, 256, kernel_size=[1, 1], data_format=NCHW)
            (norm): GroupNorm(num_groups=32, num_channels=256, epsilon=1e-05)
          )
          (1): Sequential(
            (conv): Conv2D(512, 256, kernel_size=[1, 1], data_format=NCHW)
…
          )
          (2): Sequential(
            (conv): Conv2D(1024, 256, kernel_size=[1, 1], data_format=NCHW)
            (norm): GroupNorm(num_groups=32, num_channels=256, epsilon=1e-05)
          )
          (3): Sequential(
            (conv): Conv2D(2048, 256, kernel_size=[1, 1], data_format=NCHW)
            (norm): GroupNorm(num_groups=32, num_channels=256, epsilon=1e-05)
          )
        )
        (encoder): DINOTransformerEncoder(
          (layers): LayerList(
            (0): DINOTransformerEncoderLayer(
              (self_attn): MSDeformableAttention(
                (sampling_offsets): Linear(in_features=256, out_features=256, dtype=float32)
                (attention_weights): Linear(in_features=256, out_features=128, dtype=float32)
                (value_proj): Linear(in_features=256, out_features=256, dtype=float32)
                (output_proj): Linear(in_features=256, out_features=256, dtype=float32)
              )
              (dropout1): Dropout(p=0.0, axis=None, mode=upscale_in_train)
              (norm1): LayerNorm(normalized_shape=[256], epsilon=1e-05)
              (linear1): Linear(in_features=256, out_features=2048, dtype=float32)
              (dropout2): Dropout(p=0.0, axis=None, mode=upscale_in_train)
              (linear2): Linear(in_features=2048, out_features=256, dtype=float32)
              (dropout3): Dropout(p=0.0, axis=None, mode=upscale_in_train)
              (norm2): LayerNorm(normalized_shape=[256], epsilon=1e-05)
            )
            (1): DINOTransformerEncoderLayer(
              (self_attn): MSDeformableAttention(
                (sampling_offsets): Linear(in_features=256, out_features=256, dtype=float32)
                (attention_weights): Linear(in_features=256, out_features=128, dtype=float32)
                (value_proj): Linear(in_features=256, out_features=256, dtype=float32)
                (output_proj): Linear(in_features=256, out_features=256, dtype=float32)
              )
              (dropout1): Dropout(p=0.0, axis=None, mode=upscale_in_train)
              (norm1): LayerNorm(normalized_shape=[256], epsilon=1e-05)
              (linear1): Linear(in_features=256, out_features=2048, dtype=float32)
              (dropout2): Dropout(p=0.0, axis=None, mode=upscale_in_train)
              (linear2): Linear(in_features=2048, out_features=256, dtype=float32)
              (dropout3): Dropout(p=0.0, axis=None, mode=upscale_in_train)
              (norm2): LayerNorm(normalized_shape=[256], epsilon=1e-05)
            )
            (2): DINOTransformerEncoderLayer(
              (self_attn): MSDeformableAttention(
                (sampling_offsets): Linear(in_features=256, out_features=256, dtype=float32)
                (attention_weights): Linear(in_features=256, out_features=128, dtype=float32)
                (value_proj): Linear(in_features=256, out_features=256, dtype=float32)
                (output_proj): Linear(in_features=256, out_features=256, dtype=float32)
              )
              (dropout1): Dropout(p=0.0, axis=None, mode=upscale_in_train)
              (norm1): LayerNorm(normalized_shape=[256], epsilon=1e-05)
              (linear1): Linear(in_features=256, out_features=2048, dtype=float32)
              (dropout2): Dropout(p=0.0, axis=None, mode=upscale_in_train)
              (linear2): Linear(in_features=2048, out_features=256, dtype=float32)
              (dropout3): Dropout(p=0.0, axis=None, mode=upscale_in_train)
              (norm2): LayerNorm(normalized_shape=[256], epsilon=1e-05)
            )
            (3): DINOTransformerEncoderLayer(
              (self_attn): MSDeformableAttention(
                (sampling_offsets): Linear(in_features=256, out_features=256, dtype=float32)
                (attention_weights): Linear(in_features=256, out_features=128, dtype=float32)
                (value_proj): Linear(in_features=256, out_features=256, dtype=float32)
                (output_proj): Linear(in_features=256, out_features=256, dtype=float32)
              )
              (dropout1): Dropout(p=0.0, axis=None, mode=upscale_in_train)
              (norm1): LayerNorm(normalized_shape=[256], epsilon=1e-05)
              (linear1): Linear(in_features=256, out_features=2048, dtype=float32)
              (dropout2): Dropout(p=0.0, axis=None, mode=upscale_in_train)
              (linear2): Linear(in_features=2048, out_features=256, dtype=float32)
              (dropout3): Dropout(p=0.0, axis=None, mode=upscale_in_train)
              (norm2): LayerNorm(normalized_shape=[256], epsilon=1e-05)
            )
            (4): DINOTransformerEncoderLayer(
              (self_attn): MSDeformableAttention(
                (sampling_offsets): Linear(in_features=256, out_features=256, dtype=float32)
                (attention_weights): Linear(in_features=256, out_features=128, dtype=float32)
                (value_proj): Linear(in_features=256, out_features=256, dtype=float32)
                (output_proj): Linear(in_features=256, out_features=256, dtype=float32)
              )
              (dropout1): Dropout(p=0.0, axis=None, mode=upscale_in_train)
              (norm1): LayerNorm(normalized_shape=[256], epsilon=1e-05)
              (linear1): Linear(in_features=256, out_features=2048, dtype=float32)
              (dropout2): Dropout(p=0.0, axis=None, mode=upscale_in_train)
              (linear2): Linear(in_features=2048, out_features=256, dtype=float32)
              (dropout3): Dropout(p=0.0, axis=None, mode=upscale_in_train)
              (norm2): LayerNorm(normalized_shape=[256], epsilon=1e-05)
            )
            (5): DINOTransformerEncoderLayer(
              (self_attn): MSDeformableAttention(
                (sampling_offsets): Linear(in_features=256, out_features=256, dtype=float32)
                (attention_weights): Linear(in_features=256, out_features=128, dtype=float32)
                (value_proj): Linear(in_features=256, out_features=256, dtype=float32)
                (output_proj): Linear(in_features=256, out_features=256, dtype=float32)
              )
              (dropout1): Dropout(p=0.0, axis=None, mode=upscale_in_train)
              (norm1): LayerNorm(normalized_shape=[256], epsilon=1e-05)
              (linear1): Linear(in_features=256, out_features=2048, dtype=float32)
              (dropout2): Dropout(p=0.0, axis=None, mode=upscale_in_train)
              (linear2): Linear(in_features=2048, out_features=256, dtype=float32)
              (dropout3): Dropout(p=0.0, axis=None, mode=upscale_in_train)
              (norm2): LayerNorm(normalized_shape=[256], epsilon=1e-05)
            )
          )
        )
        (decoder): DINOTransformerDecoder(
          (layers): LayerList(
            (0): DINOTransformerDecoderLayer(
              (self_attn): MultiHeadAttention(
                (out_proj): Linear(in_features=256, out_features=256, dtype=float32)
              )
              (dropout1): Dropout(p=0.0, axis=None, mode=upscale_in_train)
              (norm1): LayerNorm(normalized_shape=[256], epsilon=1e-05)
              (cross_attn): MSDeformableAttention(
                (sampling_offsets): Linear(in_features=256, out_features=256, dtype=float32)
                (attention_weights): Linear(in_features=256, out_features=128, dtype=float32)
                (value_proj): Linear(in_features=256, out_features=256, dtype=float32)
                (output_proj): Linear(in_features=256, out_features=256, dtype=float32)
              )
              (dropout2): Dropout(p=0.0, axis=None, mode=upscale_in_train)
              (norm2): LayerNorm(normalized_shape=[256], epsilon=1e-05)
              (linear1): Linear(in_features=256, out_features=2048, dtype=float32)
              (dropout3): Dropout(p=0.0, axis=None, mode=upscale_in_train)
              (linear2): Linear(in_features=2048, out_features=256, dtype=float32)
              (dropout4): Dropout(p=0.0, axis=None, mode=upscale_in_train)
              (norm3): LayerNorm(normalized_shape=[256], epsilon=1e-05)
            )
            (1): DINOTransformerDecoderLayer(
              (self_attn): MultiHeadAttention(
                (out_proj): Linear(in_features=256, out_features=256, dtype=float32)
              )
              (dropout1): Dropout(p=0.0, axis=None, mode=upscale_in_train)
              (norm1): LayerNorm(normalized_shape=[256], epsilon=1e-05)
              (cross_attn): MSDeformableAttention(
                (sampling_offsets): Linear(in_features=256, out_features=256, dtype=float32)
                (attention_weights): Linear(in_features=256, out_features=128, dtype=float32)
                (value_proj): Linear(in_features=256, out_features=256, dtype=float32)
                (output_proj): Linear(in_features=256, out_features=256, dtype=float32)
              )
              (dropout2): Dropout(p=0.0, axis=None, mode=upscale_in_train)
              (norm2): LayerNorm(normalized_shape=[256], epsilon=1e-05)
              (linear1): Linear(in_features=256, out_features=2048, dtype=float32)
              (dropout3): Dropout(p=0.0, axis=None, mode=upscale_in_train)
              (linear2): Linear(in_features=2048, out_features=256, dtype=float32)
              (dropout4): Dropout(p=0.0, axis=None, mode=upscale_in_train)
              (norm3): LayerNorm(normalized_shape=[256], epsilon=1e-05)
            )
            (2): DINOTransformerDecoderLayer(
              (self_attn): MultiHeadAttention(
                (out_proj): Linear(in_features=256, out_features=256, dtype=float32)
              )
              (dropout1): Dropout(p=0.0, axis=None, mode=upscale_in_train)
              (norm1): LayerNorm(normalized_shape=[256], epsilon=1e-05)
              (cross_attn): MSDeformableAttention(
                (sampling_offsets): Linear(in_features=256, out_features=256, dtype=float32)
                (attention_weights): Linear(in_features=256, out_features=128, dtype=float32)
                (value_proj): Linear(in_features=256, out_features=256, dtype=float32)
                (output_proj): Linear(in_features=256, out_features=256, dtype=float32)
              )
              (dropout2): Dropout(p=0.0, axis=None, mode=upscale_in_train)
              (norm2): LayerNorm(normalized_shape=[256], epsilon=1e-05)
              (linear1): Linear(in_features=256, out_features=2048, dtype=float32)
              (dropout3): Dropout(p=0.0, axis=None, mode=upscale_in_train)
              (linear2): Linear(in_features=2048, out_features=256, dtype=float32)
              (dropout4): Dropout(p=0.0, axis=None, mode=upscale_in_train)
              (norm3): LayerNorm(normalized_shape=[256], epsilon=1e-05)
            )
            (3): DINOTransformerDecoderLayer(
              (self_attn): MultiHeadAttention(
                (out_proj): Linear(in_features=256, out_features=256, dtype=float32)
              )
              (dropout1): Dropout(p=0.0, axis=None, mode=upscale_in_train)
              (norm1): LayerNorm(normalized_shape=[256], epsilon=1e-05)
              (cross_attn): MSDeformableAttention(
                (sampling_offsets): Linear(in_features=256, out_features=256, dtype=float32)
                (attention_weights): Linear(in_features=256, out_features=128, dtype=float32)
                (value_proj): Linear(in_features=256, out_features=256, dtype=float32)
                (output_proj): Linear(in_features=256, out_features=256, dtype=float32)
              )
              (dropout2): Dropout(p=0.0, axis=None, mode=upscale_in_train)
              (norm2): LayerNorm(normalized_shape=[256], epsilon=1e-05)
              (linear1): Linear(in_features=256, out_features=2048, dtype=float32)
              (dropout3): Dropout(p=0.0, axis=None, mode=upscale_in_train)
              (linear2): Linear(in_features=2048, out_features=256, dtype=float32)
              (dropout4): Dropout(p=0.0, axis=None, mode=upscale_in_train)
              (norm3): LayerNorm(normalized_shape=[256], epsilon=1e-05)
            )
            (4): DINOTransformerDecoderLayer(
              (self_attn): MultiHeadAttention(
                (out_proj): Linear(in_features=256, out_features=256, dtype=float32)
              )
              (dropout1): Dropout(p=0.0, axis=None, mode=upscale_in_train)
              (norm1): LayerNorm(normalized_shape=[256], epsilon=1e-05)
              (cross_attn): MSDeformableAttention(
                (sampling_offsets): Linear(in_features=256, out_features=256, dtype=float32)
                (attention_weights): Linear(in_features=256, out_features=128, dtype=float32)
                (value_proj): Linear(in_features=256, out_features=256, dtype=float32)
                (output_proj): Linear(in_features=256, out_features=256, dtype=float32)
              )
              (dropout2): Dropout(p=0.0, axis=None, mode=upscale_in_train)
              (norm2): LayerNorm(normalized_shape=[256], epsilon=1e-05)
              (linear1): Linear(in_features=256, out_features=2048, dtype=float32)
              (dropout3): Dropout(p=0.0, axis=None, mode=upscale_in_train)
              (linear2): Linear(in_features=2048, out_features=256, dtype=float32)
              (dropout4): Dropout(p=0.0, axis=None, mode=upscale_in_train)
              (norm3): LayerNorm(normalized_shape=[256], epsilon=1e-05)
            )
            (5): DINOTransformerDecoderLayer(
              (self_attn): MultiHeadAttention(
                (out_proj): Linear(in_features=256, out_features=256, dtype=float32)
              )
              (dropout1): Dropout(p=0.0, axis=None, mode=upscale_in_train)
              (norm1): LayerNorm(normalized_shape=[256], epsilon=1e-05)
              (cross_attn): MSDeformableAttention(
                (sampling_offsets): Linear(in_features=256, out_features=256, dtype=float32)
                (attention_weights): Linear(in_features=256, out_features=128, dtype=float32)
                (value_proj): Linear(in_features=256, out_features=256, dtype=float32)
                (output_proj): Linear(in_features=256, out_features=256, dtype=float32)
              )
              (dropout2): Dropout(p=0.0, axis=None, mode=upscale_in_train)
              (norm2): LayerNorm(normalized_shape=[256], epsilon=1e-05)
              (linear1): Linear(in_features=256, out_features=2048, dtype=float32)
              (dropout3): Dropout(p=0.0, axis=None, mode=upscale_in_train)
              (linear2): Linear(in_features=2048, out_features=256, dtype=float32)
              (dropout4): Dropout(p=0.0, axis=None, mode=upscale_in_train)
              (norm3): LayerNorm(normalized_shape=[256], epsilon=1e-05)
            )
          )
          (norm): LayerNorm(normalized_shape=[256], epsilon=1e-05)
        )
        (denoising_class_embed): Embedding(45, 256, sparse=False)
        (position_embedding): PositionEmbedding()
        (level_embed): Embedding(4, 256, sparse=False)
        (tgt_embed): Embedding(900, 256, sparse=False)
        (query_pos_head): MLP(
          (layers): LayerList(
            (0): Linear(in_features=512, out_features=256, dtype=float32)
            (1): Linear(in_features=256, out_features=256, dtype=float32)
          )
        )
        (enc_output): Sequential(
          (0): Linear(in_features=256, out_features=256, dtype=float32)
          (1): LayerNorm(normalized_shape=[256], epsilon=1e-05)
        )
        (enc_score_head): Linear(in_features=256, out_features=45, dtype=float32)
        (enc_bbox_head): MLP(
          (layers): LayerList(
            (0): Linear(in_features=256, out_features=256, dtype=float32)
            (1): Linear(in_features=256, out_features=256, dtype=float32)
            (2): Linear(in_features=256, out_features=4, dtype=float32)
          )
        )
        (dec_score_head): LayerList(
          (0): Linear(in_features=256, out_features=45, dtype=float32)
          (1): Linear(in_features=256, out_features=45, dtype=float32)
          (2): Linear(in_features=256, out_features=45, dtype=float32)
          (3): Linear(in_features=256, out_features=45, dtype=float32)
          (4): Linear(in_features=256, out_features=45, dtype=float32)
          (5): Linear(in_features=256, out_features=45, dtype=float32)
        )
        (dec_bbox_head): LayerList(
          (0): MLP(
            (layers): LayerList(
              (0): Linear(in_features=256, out_features=256, dtype=float32)
              (1): Linear(in_features=256, out_features=256, dtype=float32)
              (2): Linear(in_features=256, out_features=4, dtype=float32)
            )
          )
          (1): MLP(
            (layers): LayerList(
              (0): Linear(in_features=256, out_features=256, dtype=float32)
              (1): Linear(in_features=256, out_features=256, dtype=float32)
              (2): Linear(in_features=256, out_features=4, dtype=float32)
            )
          )
          (2): MLP(
            (layers): LayerList(
              (0): Linear(in_features=256, out_features=256, dtype=float32)
              (1): Linear(in_features=256, out_features=256, dtype=float32)
              (2): Linear(in_features=256, out_features=4, dtype=float32)
            )
          )
          (3): MLP(
            (layers): LayerList(
              (0): Linear(in_features=256, out_features=256, dtype=float32)
              (1): Linear(in_features=256, out_features=256, dtype=float32)
              (2): Linear(in_features=256, out_features=4, dtype=float32)
            )
          )
          (4): MLP(
            (layers): LayerList(
              (0): Linear(in_features=256, out_features=256, dtype=float32)
              (1): Linear(in_features=256, out_features=256, dtype=float32)
              (2): Linear(in_features=256, out_features=4, dtype=float32)
            )
          )
          (5): MLP(
            (layers): LayerList(
              (0): Linear(in_features=256, out_features=256, dtype=float32)
              (1): Linear(in_features=256, out_features=256, dtype=float32)
              (2): Linear(in_features=256, out_features=4, dtype=float32)
            )
          )
        )
      )
      (detr_head): DINOHead(
        (loss): DINOLoss(
          (matcher): HungarianMatcher()
        )
      )
    )
  )
)
[08/03 16:23:23 ufo]: Optim:
Weight Decay, params: 
n112-100-004:2222406:2222406 [0] NCCL INFO Launch mode Parallel
INFO - fastreid.utils.checkpoint - Loading checkpoint from pretrained/convert_model_x_dino_resnet_m2f.pdparams
…
